…
_pretrained_model.pth', model_save_path='log/EXP-B_res+-C_gen-L_7-F_256-DP_0.2-GA_softmax-T_1.0-LT_True-P_1.0-LP_False-Y_0.0-LY_False-MN_False-LS_False-20211205-135749-0c31d13d-aace-4c2a-ba56-1875b631c929/model_ckpt', msg_norm=False, norm='batch', num_layers=7, num_tasks=1, num_workers=0, p=1.0, save='log/EXP-B_res+-C_gen-L_7-F_256-DP_0.2-GA_softmax-T_1.0-LT_True-P_1.0-LP_False-Y_0.0-LY_False-MN_False-LS_False-20211205-135749-0c31d13d-aace-4c2a-ba56-1875b631c929', t=1.0, use_gpu=True, y=0.0)
2021-12-05 13:57:51,357 DeeperGCN(
  (gcns): ModuleList(
    (0): GENConv(
      (mlp): MLP(
        (0): Linear(in_features=256, out_features=256, bias=True)
      )
      (msg_encoder): ReLU()
      (edge_encoder): BondEncoder(
        (bond_embedding_list): ModuleList(
          (0): Embedding(5, 256)
          (1): Embedding(6, 256)
          (2): Embedding(2, 256)
        )
      )
    )
    (1): GENConv(
      (mlp): MLP(
        (0): Linear(in_features=256, out_features=256, bias=True)
      )
      (msg_encoder): ReLU()
      (edge_encoder): BondEncoder(
        (bond_embedding_list): ModuleList(
          (0): Embedding(5, 256)
          (1): Embedding(6, 256)
          (2): Embedding(2, 256)
        )
      )
    )
    (2): GENConv(
      (mlp): MLP(
        (0): Linear(in_features=256, out_features=256, bias=True)
      )
      (msg_encoder): ReLU()
      (edge_encoder): BondEncoder(
        (bond_embedding_list): ModuleList(
          (0): Embedding(5, 256)
          (1): Embedding(6, 256)
          (2): Embedding(2, 256)
        )
      )
    )
    (3): GENConv(
      (mlp): MLP(
        (0): Linear(in_features=256, out_features=256, bias=True)
      )
      (msg_encoder): ReLU()
      (edge_encoder): BondEncoder(
        (bond_embedding_list): ModuleList(
          (0): Embedding(5, 256)
          (1): Embedding(6, 256)
          (2): Embedding(2, 256)
        )
      )
    )
    (4): GENConv(
      (mlp): MLP(
        (0): Linear(in_features=256, out_features=256, bias=True)
      )
      (msg_encoder): ReLU()
      (edge_encoder): BondEncoder(
        (bond_embedding_list): ModuleList(
          (0): Embedding(5, 256)
          (1): Embedding(6, 256)
          (2): Embedding(2, 256)
        )
      )
    )
    (5): GENConv(
      (mlp): MLP(
        (0): Linear(in_features=256, out_features=256, bias=True)
      )
      (msg_encoder): ReLU()
      (edge_encoder): BondEncoder(
        (bond_embedding_list): ModuleList(
          (0): Embedding(5, 256)
          (1): Embedding(6, 256)
          (2): Embedding(2, 256)
        )
      )
    )
    (6): GENConv(
      (mlp): MLP(
        (0): Linear(in_features=256, out_features=256, bias=True)
      )
      (msg_encoder): ReLU()
      (edge_encoder): BondEncoder(
        (bond_embedding_list): ModuleList(
          (0): Embedding(5, 256)
          (1): Embedding(6, 256)
          (2): Embedding(2, 256)
        )
      )
    )
  )
  (norms): ModuleList(
    (0): BatchNorm1d(256, eps=1e-05, momentum=0.1, affine=True, track_running_stats=True)
    (1): BatchNorm1d(256, eps=1e-05, momentum=0.1, affine=True, track_running_stats=True)
    (2): BatchNorm1d(256, eps=1e-05, momentum=0.1, affine=True, track_running_stats=True)
    (3): BatchNorm1d(256, eps=1e-05, momentum=0.1, affine=True, track_running_stats=True)
    (4): BatchNorm1d(256, eps=1e-05, momentum=0.1, affine=True, track_running_stats=True)
    (5): BatchNorm1d(256, eps=1e-05, momentum=0.1, affine=True, track_running_stats=True)
    (6): BatchNorm1d(256, eps=1e-05, momentum=0.1, affine=True, track_running_stats=True)
  )
  (atom_encoder): AtomEncoder(
    (atom_embedding_list): ModuleList(
      (0): Embedding(119, 256)
      (1): Embedding(4, 256)
      (2): Embedding(12, 256)
      (3): Embedding(12, 256)
      (4): Embedding(10, 256)
      (5): Embedding(6, 256)
      (6): Embedding(6, 256)
      (7): Embedding(2, 256)
      (8): Embedding(2, 256)
    )
  )
  (graph_pred_linear): Linear(in_features=256, out_features=1, bias=True)
)
2021-12-05 13:57:51,358 =====Epoch 1
2021-12-05 13:57:51,358 Training...
2021-12-05 13:58:52,056 Evaluating...
2021-12-05 13:59:26,774 {'Train': 0.719892281689702, 'Validation': 0.7325929600235156, 'Test': 0.7050676915351783}
2021-12-05 13:59:26,774 Epoch 1, t [1.0208728313446045, 1.0220130681991577, 1.0028897523880005, 0.9962703585624695, 0.9996068477630615, 0.9882117509841919, 0.994753360748291]
…
